Experiments/CNNAutoencoder/weights/cnn_ae.pt (torch, 764405 bytes, 16 tensors)

encoder.out_seq.0.conv_1.weight f4 [8, 3, 3, 3]
0.10644472 -0.059077784 0.2032552 0.010869986 0.080054745 0.10874559 -0.15740882 -0.0050502922
-0.110154234 -0.11815396 -0.18505913 0.016246375 0.11200846 -0.15328483 0.13260892 -0.04235346
0.012955965 -0.08775956 0.094277956 0.017079467 -0.03729978 -0.008052112 -0.015370919 0.2038804
0.15627098 -0.011508747 0.03873006 -0.12571725 -0.13479078 -0.0018814465 0.103172205 0.013457358
0.14631957 0.16283847 -0.16560183 -0.084974565 0.14846034 -0.048348386 0.18293898 0.09709242
0.20885788 0.17997016 0.19393988 0.20350388 -0.06883295 -0.12159471 0.018986372 -0.08110054
-0.15226609 -0.14484972 0.20904635 0.10811167 0.048314136 0.12544462 -0.057470914 0.19465171
-0.0018605227 0.052892637 -0.14313178 0.07859288 0.11526399 0.14735582 -0.16770348 0.08676339
0.13759395 0.17897089 0.23710261 -0.100537345 -0.09401688 -0.12214071 0.08144409 -0.09622044
0.21924897 -0.020774955 -0.04381852 -0.05178839 0.08173326 0.18078439 0.015674563 -0.15800002
-0.12866358 0.17536783 -0.011619142 -0.073838 0.1503951 0.086249 0.10224322 0.11838106
-0.017477486 0.10820961 0.15814151 -0.16672616 0.19927602 -0.030081933 0.12023613 -0.16101715
0.14859566 -0.08674214 -0.08352318 -0.1520316 0.08000626 -0.0373537 -0.14983188 0.14664815
-0.038555264 0.21573544 0.17109497 -0.14247437 -0.068010174 0.2707048 0.08837123 0.05290628
-0.018785791 -0.06271725 -0.098192394 0.2150125 0.07444974 -0.0011969145 0.113934234 0.11761385
-0.105580345 -0.037723888 -0.102240086 0.10523882 -0.12339346 0.17067356 0.009363875 0.020065567
0.15120848 -0.025588736 -0.17578334 -0.12369188 -0.13264868 0.03970047 0.031667747 -0.14475644
-0.19397685 0.19278695 -0.06999461 0.032982294 -0.03923255 0.13921668 0.11956043 0.010473194
-0.16112061 0.0030082485 0.017983176 -0.08876949 -0.100294754 0.11798797 0.025617262 0.009305784
-0.0101833325 0.09810914 0.21704341 -0.020803822 0.13625896 0.16882999 0.1460125 -0.10656144
0.07025923 0.06790055 -0.0140798725 0.08868458 0.14259268 -0.08250201 0.087919705 0.04185509
-0.11398147 -0.103007965 -0.042327654 -0.15373749 -0.19753525 -0.16330506 -0.05469719 -0.02137532
-0.18953562 -0.08056012 -0.031094631 0.16853295 0.08897167 0.16371761 -0.16462682 -0.18064845
-0.006598628 -0.17533332 -0.046897687 -0.1746596 0.13943636 -0.030489843 0.107035324 0.06355012
0.032777593 -0.09606266 -0.040678423 0.08232756 0.040994354 -0.051469512 0.106260985 -0.11282403
-0.06584819 0.083917916 -0.069367416 -0.03212341 0.02193366 0.120373994 0.17138675 0.043344863
0.015425896 -0.07649184 0.24719381 0.13673143 0.0145177515 0.016260372 0.20708889 0.124384366
00000000: b0ff d93d 8cfb 71bd 2222 503e 0718 323c
00000010: bef3 a33d 02b6 de3d c72f 21be ec7c a5bb
00000020: 8b98 e1bd b4fa f1bd 2480 3dbe 1e17 853c
00000030: b164 e53d b3f6 1cbe a2ca 073e d27a 2dbd
00000040: 4145 543c 49bb b3bd cd14 c13d 3dea 8b3c
00000050: a7c7 18bd 01ed 03bc 4fd6 7bbc 06c6 503e
00000060: 8005 203e 2f8f 3cbc 69a3 1e3d 06bc 00be
00000070: 9806 0abe de9a f6ba f34b d33d 407c 5c3c
00000080: ccd4 153e 21bf 263e 8793 29be 2507 aebd
00000090: fd05 183e f508 46bd 5b54 3b3e 64d8 c63d
000000a0: d7de 553e 194a 383e 2d98 463e 5263 503e
000000b0: 4af8 8cbd a606 f9bd 4f89 9b3c 0a18 a6bd
000000c0: a4eb 1bbe 7c53 14be 3f10 563e a769 dd3d
000000d0: 0be5 453d 8e74 003e 9f66 6bbd c752 473e
000000e0: c8dc f3ba f3a5 583d 2391 12be 4ef5 a03d
000000f0: 870f ec3d 72e4 163e 76ba 2bbe 01b1 b13d
00000100: 6ee5 0c3e 2544 373e 07cb 723e 86e6 cdbd
00000110: ec8b c0bd e924 fabd 29cc a63d 390f c5bd
00000120: cd82 603e 3d30 aabc 0c7b 33bd 1020 54bd
00000130: c463 a73d 8b1f 393e f167 803c c2ca 21be
00000140: 63c0 03be a093 333e 375e 3ebc 6138 97bd
00000150: 2c01 1a3e 51a3 b03d e564 d13d c571 f23d
00000160: f22c 8fbc 009d dd3d d9ef 213e 43ba 2abe
00000170: 030f 4c3e 636e f6bc 5c3e f63d aee1 24be
00000180: 7629 183e dda5 b1bd 330e abbd 2cae 1bbe
00000190: 52da a33d 3100 19bd 876d 19be ef2a 163e
000001a0: 20ec 1dbd c0e9 5c3e 8533 2f3e cde4 11be
000001b0: eb48 8bbd d299 8a3e fafb b43d 41b4 583d
000001c0: a9e4 99bc e771 80bd 1819 c9bd 3d2c 5c3e
000001d0: 1b79 983d c9e1 9cba 5a56 e93d 88df f03d
000001e0: 823a d8bd 5d84 1abd 4063 d1bd 7387 d73d
000001f0: b6b5 fcbd 0dc5 2e3e f06a 193c 8b60 a43c
00000200: 65d6 1a3e 789f d1bc 8c00 34be 2b52 fdbd
00000210: 0ed5 07be f69c 223d 0ab6 013d 083b 14be
00000220: dea1 46be f169 453e 5659 8fbd 7118 073d
00000230: 4fb2 20bd d18e 0e3e 19dc f43d c297 2b3c
00000240: cdfc 24be 0926 453b 7451 933c c7cc b5bd
00000250: 5667 cdbd ada3 f13d 4bdb d13c 4977 183c
00000260: fed7 26bc 72ed c83d a140 5e3e c76c aabc
00000270: 7887 0b3e c5e1 2c3e 4d84 153e e23c dabd
00000280: 12e4 8f3d 720f 8b3d 44af 66bc 43a0 b53d
00000290: d103 123e d0f6 a8bd 3f0f b43d 3e70 2b3d
000002a0: 1e6f e9bd d7f5 d2bd c35f 2dbd 5c6d 1dbe
000002b0: ae46 4abe 7139 27be 290a 60bd 4c1b afbc
000002c0: a015 42be b4fc a4bd 2bba febc e793 2c3e
000002d0: c736 b63d 97a5 273e ef93 28be e8fb 38be
000002e0: 4e39 d8bb 948a 33be ca17 40bd f7d9 32be
000002f0: 68c8 0e3e d6c5 f9bc 5635 db3d 9126 823d
00000300: cc41 063d 80bc c4bd 6b9e 26bd 5a9b a83d
00000310: b2e9 273d b2d1 52bd 5c9f d93d 4910 e7bd
00000320: 6adb 86bd 28dd ab3d 8110 8ebd d693 03bd
00000330: 38ae b33c a486 f63d 0280 2f3e 628a 313d
00000340: e6bc 7c3c c1a7 9cbd 6020 7d3e 5303 0c3e
00000350: dddb 6d3c 7934 853c 1c0f 543e 3bbd fe3d

encoder.out_seq.0.conv_1.bias f4 [8]
0.13863082 0.0009073311 0.14291178 0.041117996 0.0907038 0.14354368 -0.18027754 0.048196577
00000000: 3df5 0d3e f6d9 6d3a 7757 123e 586b 283d
00000010: eac2 b93d 1dfd 123e ad9a 38be c669 453d

encoder.out_seq.1.conv_1.weight f4 [32, 8, 3, 3]
0.050522014 -0.120738596 -0.13431425 -0.022886004 0.04795675 -0.06846616 -0.087481454 -0.06623224
0.041091938 -0.041407477 0.07494972 0.030458124 0.06724055 0.12887369 0.11281083 -0.07049168
0.119883955 0.08212146 0.02368699 0.024524212 -0.0018358273 -0.10220142 0.043683503 -0.065432474
0.091211215 0.0064591933 0.10725263 -0.055337463 0.12194422 -0.08954715 0.05048806 -0.080827415
-0.08656044 0.023855463 -0.01745685 -0.009536897 -0.040834934 -0.058686517 0.07718969 0.09268273
-0.10649559 0.08712761 0.039312154 -0.17243734 -0.069603965 0.15549608 0.08911901 0.09367857
-0.012903979 0.0056227073 0.15930529 -0.052938037 -0.04543426 0.16594622 -0.048946362 0.062510476
0.0787852 -0.009242304 0.0046320343 -0.09968049 -0.1089089 -0.11063353 0.09697198 -0.082978345
-0.047520455 -0.010293044 0.14751749 0.08490719 0.05149356 0.009346501 0.024462074 0.12148475
0.051997423 -0.078529425 -0.06769871 0.05681575 0.084591925 0.05787476 -0.10943161 0.032944012
0.09800144 0.06463 -0.09764398 0.08901195 -0.021476658 0.116113864 0.041696887 -0.08510691
-0.09455413 -0.03143607 -0.05744541 -0.0939518 -0.029403552 -0.02317585 0.032655183 0.030780757
-0.06071872 0.07020975 -0.052123163 -0.08636182 -0.05953335 -0.08390249 -0.0013754203 -0.003838426
-0.10073673 0.007191053 0.032981973 -0.07091283 -0.09835685 -0.029246878 0.04982169 -0.08388411
0.029434629 0.07637897 0.022308987 -0.027201857 0.02860626 -0.07590976 -0.006895098 -0.02620677
-0.08368112 0.059587132 -0.057042122 -0.045733307 0.03632624 -0.03842191 0.084370896 -0.032761984
0.046110746 0.039903946 0.027059428 0.024380477 0.10784377 0.0632857 -0.10354185 -0.10503861
-0.04317117 0.04163867 0.037287276 0.0009215268 -0.029439827 -0.071992524 -0.04430738 -0.034833513
-0.053711925 0.10997317 0.035670165 -0.057626538 0.09424915 -0.0743206 0.08028195 -0.041055266
0.11335396 -0.11103871 -0.11438587 -0.0002481736 -0.0023442334 -0.0061347783 -0.01463547 -0.06831222
0.0440679 -0.059988905 -0.044183027 0.00020093874 -0.018756725 -0.05199868 -0.08709058 -0.0786913
-0.11253269 -0.11989439 0.09648601 -0.023843296 -0.10027471 0.031906754 -0.10031068 0.028076261
-0.07086839 0.08139889 0.11081979 -0.09385931 -0.021953212 0.058876682 -0.020228667 -0.071494386
-0.077201605 -0.062975034 -0.03143943 -0.08491919 0.048962962 -0.104469106 -0.0056485687 -0.03227964
0.07083398 0.052932277 -0.0531086 -0.067678295 -0.09806282 0.0070218374 0.03335118 0.024084227
0.0935202 -0.05785852 0.035595823 0.071499474 -0.02100804 -0.056794662 -0.05674386 -0.080030605
-0.10273541 -0.07867803 0.054703746 -0.07682435 0.030375745 -0.04395697 0.009821358 0.08395834
0.060894508 -0.07975332 0.0051210057 0.05384748 0.027385 -0.15324832 0.0006475319 -0.106725164
-0.18672909 0.14529523 -0.022741286 0.12351458 -0.042881723 -0.06079364 0.11209605 0.022869106
0.12948208 0.016259309 0.057211947 0.11387393 0.10942953 0.11120724 -0.11429065 0.099653
-0.06075453 -0.090914115 -0.032543477 0.06822519 0.066237 0.08639286 -0.05241175 -0.13835421
0.05132169 -0.047393527 -0.12182299 -0.03091544 -0.10114319 -0.0036082945 -0.06468878 0.08100122
00000000: 2cf0 4e3d cc45 f7bd ad89 09be 6e7b bbbc
00000010: 4c6e 443d fc37 8cbd 7a29 b3bd c5a4 87bd
00000020: 0550 283d e39a 29bd 3d7f 993d 5183 f93c
00000030: 6ab5 893d 77f7 033e 5d09 e73d f15d 90bd
00000040: b885 f53d 4c2f a83d 380b c23c 00e7 c83c
00000050: 24a0 f0ba fa4e d1bd 79ed 323d 7601 86bd
00000060: f2cc ba3d a4a7 d33b 44a7 db3d 89a9 62bd
00000070: e4bd f93d 7f64 b7bd 91cc 4e3d d888 a5bd
00000080: 9a46 b1bd 886c c33c ab01 8fbc a540 1cbc
00000090: 8842 27bd 4661 70bd a115 9e3d 71d0 bd3d
000000a0: 5c1a dabd f66f b23d c805 213d 6a93 30be
000000b0: 868c 8ebd 5d3a 1f3e 0784 b63d 8dda bf3d
000000c0: 366b 53bc b03e b83b ed20 233e 8ed5 58bd
000000d0: 4619 3abd ceed 293e fb7b 48bd 7e05 803d
000000e0: 235a a13d 086d 17bc 52c8 973b 4925 ccbd
000000f0: a10b dfbd d593 e2bd 3f99 c63d 8df0 a9bd
00000100: cfa4 42bd 28a4 28bc d30e 173e d2e3 ad3d
00000110: e9ea 523d 1122 193c b064 c83c ffcc f83d
00000120: 40fb 543d 09d4 a0bd 9fa5 8abd a2b7 683d
00000130: 883e ad3d 160e 6d3d ae1d e0bd 4df0 063d
00000140: fbb4 c83d bc5c 843d 91f9 c7bd e64b b63d
00000150: d1ef afbc 1bcd ed3d 5bca 2a3d 884c aebd
00000160: 99a5 c1bd 1cc3 00bd e14b 6bbd cd69 c0bd
00000170: b8df f0bc 48db bdbc 71c1 053d ed27 fc3c
00000180: 31b4 78bd 21ca 8f3d 197f 55bd 77de b0bd
00000190: 3ed9 73bd 12d5 abbd 7247 b4ba 1a8e 7bbb
000001a0: 0f4f cebd eda2 eb3b 1b18 073d bf3a 91bd
000001b0: 516f c9bd 2697 efbc d411 4c3d 6fcb abbd
000001c0: e420 f13c 946c 9c3d 56c1 b63c 6ed6 debc
000001d0: ad57 ea3c 9476 9bbd 46f0 e1bb 95af d6bc
000001e0: 0261 abbd a311 743d 00a5 69bd d952 3bbd
000001f0: d3ca 143d 4b60 1dbd a6ca ac3d 6e31 06bd
00000200: 9fde 3c3d 5272 233d bcab dd3c 91b9 c73c
00000210: 32dd dc3d ef9b 813d c00d d4bd 7c1e d7bd
00000220: 41d4 30bd 4f8d 2a3d 8bba 183d 9e92 713a
00000230: cb2b f1bc d170 93bd a87b 35bd 96ad 0ebd
00000240: 0901 5cbd 9d39 e13d e11a 123d ce09 6cbd
00000250: b305 c13d 6635 98bd dd6a a43d 9129 28bd
00000260: 1f26 e83d 4368 e3bd 2443 eabd 4c1d 82b9
00000270: b6a1 19bb 4006 c9bb 9cc9 6fbc 47e7 8bbd
00000280: 8b80 343d edb6 75bd 43f9 34bd 15b3 5239
00000290: b4a7 99bc 91fc 54bd 8c5c b2bd e728 a1bd
000002a0: 8a77 e6bd 318b f5bd 759a c53d 0453 c3bc
000002b0: d45c cdbd a8b0 023d b06f cdbd 3000 e63c
000002c0: 7223 91bd 76b4 a63d 7cf5 e23d 4f39 c0bd
000002d0: 39d7 b3bc ad28 713d 97b6 a5bc a66b 92bd
000002e0: e01b 9ebd 0ef9 80bd a2c6 00bd 1dea adbd
000002f0: 638d 483d e6f3 d5bd a117 b9bb a837 04bd
00000300: 6811 913d 84cf 583d 6788 59bd eb9a 8abd
00000310: 29d5 c8bd 7117 e63b 3f9b 083d 494c c53c
00000320: 8587 bf3d 0efd 6cbd edcc 113d 516e 923d
00000330: 0e19 acbc 85a1 68bd 406c 68bd 16e7 a3bd
00000340: f166 d2bd f221 a1bd 0911 603d 1656 9dbd
00000350: 8ed6 f83c 390c 34bd c3e9 203c 5af2 ab3d
00000360: 856c 793d b555 a3bd 1cce a73b 2d8f 5c3d
00000370: 8256 e03c 21ed 1cbe 21bf 293a b992 dabd
00000380: e935 3fbe 46c8 143e ef4b babc 36f5 fc3d
00000390: bfa4 2fbd c002 79bd 9d92 e53d fe57 bb3c
000003a0: f396 043e 3e32 853c 1357 6a3d bc36 e93d
000003b0: 971c e03d 9fc0 e33d 3711 eabd df16 cc3d
000003c0: bed9 78bd 2e31 babd 4f4c 05bd a6b9 8b3d
000003d0: 44a7 873d bdee b03d b4ad 56bd baac 0dbe
000003e0: b136 523d b71f 42bd 557e f9bd 6042 fdbc
000003f0: 2924 cfbd 2379 6cbb 8d7b 84bd f8e3 a53d

encoder.out_seq.1.conv_1.bias f4 [32]
-0.006000698 -0.0649181 0.03712435 0.06953996 -0.006406819 -0.0003654539 -0.0684243 0.107364796
-0.016676228 -0.06553917 -0.12896216 0.08796084 -0.006066338 0.075282305 0.10911159 -0.04021958
-0.065517664 -0.11894423 0.07754046 -0.10614004 -0.09564101 0.11934385 0.0984785 0.11982433
0.090205535 0.040721547 -0.12484302 0.024385534 -0.082416676 0.0767108 0.025006251 0.037888765
00000000: 81a1 c4bb c8f3 84bd b40f 183d f76a 8e3d
00000010: 4bf0 d1bb 649a bfb9 0a22 8cbd 13e2 db3d
00000020: 969c 88bc 6639 86bd a80e 04be d024 b43d
00000030: 22c8 c6bb 9c2d 9a3d e675 df3d 49bd 24bd
00000040: 202e 86bd 0899 f3bd 88cd 9e3d f35f d9bd
00000050: 6fdf c3bd 8c6a f43d 19af c93d 7566 f53d
00000060: aebd b83d a3cb 263d b3ad ffbd 2cc4 c73c
00000070: 13ca a8bd 8d1a 9d3d e9d9 cc3c 4031 1b3d

encoder.out_seq.2.conv_1.weight f4 [64, 32, 3, 3]
-0.018656403 -0.04396461 -0.057364114 0.011700792 0.009863176 0.019908056 -0.07021186 0.014404271
-0.06896698 0.036997367 0.0028431914 -0.039342243 0.03021256 -0.054875717 0.001270587 0.04409383
-0.032647405 0.038570266 -0.03683674 -0.05332375 0.04937792 -0.022038054 -0.033116855 0.008331907
-0.03923429 -0.0036170706 0.05649765 -0.004192029 -0.068873145 -0.041284237 0.016983872 -0.032469798
-0.04701647 -0.017638996 -0.08940995 -0.009561623 0.034574125 0.009503523 -0.008109001 -0.039325923
0.012987649 0.059240423 -0.023157034 0.046845786 0.02026783 0.026229268 -0.00870132 -0.051582012
-0.09059094 -0.068084136 -0.025733741 -0.02675449 -0.04724677 -0.06157977 0.04866009 -0.05475708
0.029045936 -0.048118208 -0.033654995 0.0382414 -0.03509174 -0.041841943 -0.0095151495 0.021504713
-0.08645031 0.004197009 -0.07556547 0.0008257889 0.013578957 -0.008115663 -0.065581016 -0.08533983
-0.050448768 -0.028895084 -0.026555724 -0.03066753 -0.022637825 0.00724303 -0.055850692 -0.03014228
-0.04991684 -0.034218274 0.00011072044 -0.0029503112 -0.04583032 -0.040074408 0.018076 -0.061504938
-0.061903756 -0.049694654 -0.025563005 0.051676877 -0.042830795 -0.010968289 0.053401392 -0.036174852
0.020729618 -0.0492743 0.026672544 0.01895736 0.0019271574 -0.048331376 -0.01664314 -0.032694805
4.7259444e-05 -0.057577733 -0.06926754 0.00083280634 -0.028604144 -0.011204225 -0.05284134 0.01636297
-0.008084748 -0.033772178 -0.07656025 -0.080395974 -0.03492071 -0.037342288 -0.018889867 -0.05881735
-0.0075074225 0.018458635 -0.014419267 0.013097244 -0.010414723 -0.047799096 -0.012506433 -0.0892858
-0.07329614 -3.4317938e-05 -0.02339039 -0.030417835 -0.07444155 -0.06653565 -0.07517569 0.00050670374
-0.038544863 -0.058685698 -0.05303063 0.01897668 0.027134802 -0.019130735 -0.012530827 -0.057239942
-0.0075648963 -0.015224854 0.03347202 0.017143859 0.013906331 0.016288236 -0.08461141 -0.04284711
0.01801679 0.05729631 -0.057885766 -0.049520455 0.013901 -0.04555827 0.01569888 -0.027744105
0.058124103 0.009158103 -0.047464028 -0.042267032 -0.03409909 -0.026697453 -0.0013090475 -0.022396393
0.0033123128 -0.016474998 0.0036787277 -0.03339018 0.024999838 -0.05059012 0.028537456 0.001327991
0.004580913 0.020582203 0.0091227135 -0.0042769145 -0.08153225 -0.07086285 0.02811342 0.011621478
-0.05669536 -0.05186603 -0.059886083 -0.0043813093 0.005652872 0.018048601 -0.08801439 -0.06448868
0.018886672 -0.012024677 -0.08247785 -0.053482432 -0.06653422 -0.040828668 -0.08918924 -0.03751964
-0.068355076 -0.031216236 -0.051666334 0.012640266 -0.011968559 0.008788912 -0.065582 -0.017199041
-0.051171344 -0.032931272 -0.0680884 -0.03092116 -0.08725438 -0.07151624 -0.05976958 0.024405943
-0.04062627 -0.07898479 -0.09056879 -0.061826084 -0.08633727 -0.07358928 -0.007911832 -0.04894887
-0.022079222 -0.0355258 0.0073460946 -0.0266417 -0.03166776 -0.080360204 -0.030184783 -0.08770331
0.018072179 -0.089335285 -0.012493962 -0.017146483 0.057505984 -0.044738818 0.04385476 -0.030336605
0.010169191 -0.021684006 -0.042438686 0.015248227 -0.06376139 -0.0837988 -0.009733092 -0.05489172
-0.028553464 -0.07868783 -0.004850592 -0.026746774 -0.047668874 -0.053548403 -0.037390374 -0.06840234
00000000: 50d5 98bc 3c14 34bd a2f6 6abd aeb4 3f3c
00000010: 2999 213c 3816 a33c 3ccb 8fbd e4ff 6b3c
00000020: 8f3e 8dbd 8d8a 173d d654 3a3b 5525 21bd
00000030: 5580 f73c 5cc5 60bd d389 a63a bb9b 343d
00000040: 49b9 05bd dbfb 1d3d 1fe2 16bd 016a 5abd
00000050: 8040 4a3d 2689 b4bc 8aa5 07bd 8d82 083c
00000060: 23b4 20bd 600c 6dbb 146a 673d 4a5d 89bb
00000070: 5d0d 8dbd a919 29bd c321 8b3c 0dff 04bd
00000080: 5894 40bd a87f 90bc 901c b7bd 5ba8 1cbc
00000090: 999d 0d3d aab4 1b3c 9edb 04bc 3814 21bd
000000a0: 26ca 543c 16a6 723d d2b3 bdbc 5ee1 3f3d
000000b0: b808 a63c c3de d63c fb8f 0ebc a947 53bd
000000c0: be87 b9bd b26f 8bbd 91cf d2bc 3b2c dbbc
000000d0: d485 41bd 123b 7cbd cd4f 473d f648 60bd
000000e0: bef1 ed3c 9917 45bd d2d9 09bd 04a3 1c3d
000000f0: 5bbc 0fbd 7562 2bbd 6ee5 1bbc a72a b03c
00000100: dc0c b1bd 1087 893b 12c2 9abd c179 583a
00000110: 467a 5e3c 8ff7 04bc 574f 86bd a6c6 aebd
00000120: 5ea3 4ebd 62b5 ecbc 648b d9bc 793a fbbc
00000130: f672 b9bc f056 ed3b b2c3 64bd f1ec f6bc
00000140: 9a75 4cbd 7628 0cbd 9532 e838 025a 41bb
00000150: 93b8 3bbd 1025 24bd 1f14 943c 9aec 7bbd
00000160: cb8e 7dbd 9f8c 4bbd 8269 d1bc 22ab 533d
00000170: 586f 2fbd 57b4 33bc 6bbb 5a3d 152c 14bd
00000180: 29d1 a93c d9d3 49bd 6180 da3c 774c 9b3c
00000190: ac98 fc3a 1ff7 45bd 3257 88bc fdea 05bd
000001a0: 7138 4638 a1d6 6bbd 24dc 8dbd b050 5a3a
000001b0: 3d53 eabc ed91 37bc 2970 58bd a30b 863c
000001c0: e475 04bc b254 0abd 9fcb 9cbd a5a6 a4bd
000001d0: 0509 0fbd 3af4 18bd ecbe 9abc 76ea 70bd
000001e0: d300 f6bb 9036 973c ca3e 6cbc d395 563c
000001f0: 84a2 2abc fcc8 43bd c8e7 4cbc 79db b6bd
00000200: 491c 96bd 9bf0 0fb8 349d bfbc d32e f9bc
00000210: d074 98bd d843 88bd b6f5 99bd 50d4 043a
00000220: 38e1 1dbd 6a60 70bd a536 59bd fb74 9b3c
00000230: ce49 de3c 0fb8 9cbc 194e 4dbc 6e74 6abd
00000240: f3e2 f7bb ab71 79bc f519 093d 4771 8c3c
00000250: 61d7 633c e86e 853c bf48 adbd 7480 2fbd
00000260: f297 933c 89af 6a3d a019 6dbd f6d5 4abd
00000270: 05c1 633c 4f9b 3abd f09a 803c 9b47 e3bc
00000280: 8a13 6e3d de0b 163c a469 42bd 3220 2dbd
00000290: 7dab 0bbd 9eb4 dabc 5894 abba a478 b7bc
000002a0: 6313 593b 93f6 86bc cf16 713b 24c4 08bd
000002b0: 76cc cc3c 9637 4fbd 62c7 e93c fc0f ae3a
000002c0: 7c1b 963b 029c a83c 6f77 153c 5c25 8cbb
000002d0: 61fa a6bd 8b20 91bd 1d4e e63c 0368 3e3c
000002e0: 6539 68bd 7971 54bd 1c4b 75bd 1691 8fbb
000002f0: ba3b b93b a9da 933c e340 b4bd a412 84bd
00000300: 39b8 9a3c 2703 45bc 26ea a8bd 6510 5bbd
00000310: 1843 88bd f63b 27bd d9a8 b6bd 32ae 19bd
00000320: bffd 8bbd 31b9 ffbc 14a0 53bd 1e19 4f3c
00000330: c617 44bc 5eff 0f3c db4f 86bd 01e5 8cbc
00000340: 0b99 51bd f1e2 06bd ee71 8bbd 5f4e fdbc
00000350: 6db2 b2bd 1b77 92bd f2d0 74bd f9ee c73c
00000360: bb67 26bd c7c2 a1bd 217c b9bd 593d 7dbd
00000370: 98d1 b0bd fab5 96bd a1a0 01bc 9c7e 48bd
00000380: 7cdf b4bc 8083 11bd 82b7 f03b b23f dabc
00000390: 0eb6 01bd e493 a4bd 1446 f7bc cb9d b3bd
000003a0: 1b0c 943c 6bf5 b6bd 7ab3 4cbc c876 8cbc
000003b0: 658b 6b3d 0d40 37bd 0ca1 333d 7984 f8bc
000003c0: ae9c 263c a8a2 b1bc 30d4 2dbd b3d3 793c
000003d0: 5595 82bd b59e abbd 8c77 1fbc 24d6 60bd
000003e0: f4e8 e9bc 1627 a1bd b7f1 9ebb 0d1c dbbc
000003f0: 7040 43bd 9255 5bbd a626 19bd 8716 8cbd

encoder.out_seq.2.conv_1.bias f4 [64]
-0.03527794 0.029307751 -0.053051516 0.0069699953 -0.019485375 -0.04913124 -0.022273256 -0.021526972
-0.021168852 0.0018254714 0.037609834 -0.0495757 0.041724138 0.024236465 -0.027581267 0.052292928
0.044056844 -0.047135655 0.024749003 0.048852902 -0.032976463 -0.038224068 -0.029084312 -0.06217393
0.024597147 -0.034716796 0.010933183 -0.03914658 -0.009248297 0.025276167 0.022402901 -0.06280015
0.032478996 -0.033959873 0.059499484 -0.03025229 0.020798368 -0.036681067 0.031249609 0.060204666
-0.040696587 0.015949454 0.03447353 -0.05355018 0.00025403657 -0.042716816 -0.0573537 -0.03252611
-0.038548596 -0.020685619 -0.03044008 -0.017595481 0.014353038 -0.056131065 0.041732445 0.006851532
-0.038438275 0.008985879 -0.03408846 -0.06376234 0.035168447 0.020229287 0.0232111 0.02222791
00000000: 9a7f 10bd cf16 f03c 8c4c 59bd 8f64 e43b
00000010: cb9f 9fbc d73d 49bd 6776 b6bc 5559 b0bc
00000020: 4d6a adbc a844 ef3a c50c 1a3d e40f 4bbd
00000030: eee6 2a3d 8d8b c63c 1cf2 e1bc 1c31 563d
00000040: f374 343d 5111 41bd 6cbe ca3c fb19 483d
00000050: 5412 07bd d790 1cbd 3942 eebc 17aa 7ebd
00000060: f57f c93c 3333 0ebd 1821 333c 2a58 20bd
00000070: 2b86 17bc f70f cf3c 4a86 b73c 5d9d 80bd
00000080: b208 053d 8219 0bbd bbb5 733d a7d3 f7bc
00000090: 5761 aa3c e33e 16bd 2eff ff3c 2b99 763d
000000a0: 77b1 26bd 6ea8 823c 1e34 0d3d 6f57 5bbd
000000b0: 3630 8539 d4f7 2ebd b7eb 6abd 193a 05bd
000000c0: 22e5 1dbd e374 a9bc 7a5d f9bc 6624 90bc
000000d0: 0129 6b3c b0e9 65bd a4ef 2a3d d182 e03b
000000e0: 7471 1dbd 8239 133c 57a0 0bbd d495 82bd
000000f0: ca0c 103d e4b7 a53c 3425 be3c 4e17 b63c

encoder.out_seq.3.conv_1.weight f4 [128, 64, 3, 3]
-0.043693498 0.000121764795 -0.02304363 -0.039689228 -0.0051119095 -0.046601832 -0.025706256 -0.028788332
-0.0022357523 0.01718368 -0.010867849 -0.0044035073 -0.018632337 -0.005131944 5.388798e-05 0.029766867
-0.043711856 0.023374207 0.06800343 0.046452 0.067731135 0.0045079025 -0.023948288 -0.028435167
0.017857404 -0.006683654 -0.06398106 0.11340745 -0.0018289761 -0.087230235 -0.027719565 -0.013666441
-0.033631377 -0.04264795 -0.008169129 0.09681371 -0.022655722 0.072193734 0.03831701 -0.04254522
0.0060911765 0.0028343478 -0.045643426 0.012474966 -0.013400577 -0.008513303 -0.03061207 -0.034032244
-0.021908557 0.0121724745 -0.040283587 -0.04227531 -0.048633035 -0.017335063 0.026771976 0.017156977
0.054503657 -0.005506782 0.039160155 0.054517724 0.036598895 0.034783214 0.039867803 0.049839415
-0.017246999 0.03488976 0.03257692 -0.058610536 0.04221138 -0.008096874 -0.017192144 -0.0037776832
-0.024452914 -0.020988995 -0.025445784 -0.019582815 0.029739331 0.0045415424 -0.035103973 -0.01798044
0.023122203 -0.06818123 0.011015229 0.029002761 0.0011774399 0.04513963 -0.03232982 -0.017401788
-0.045820452 -0.057955433 0.034306552 -0.028402884 0.1220419 -0.086984836 -0.11114445 0.019596966
0.006350979 -0.0608659 0.059343465 7.9349586e-05 0.0016329595 0.0065762624 0.043069232 -0.00058647676
0.037396077 0.037131794 -0.019893588 -0.0024572008 -0.008139667 0.035680003 0.10068988 -0.013901408
0.011835154 0.057758905 -0.019657103 0.043003004 0.020807693 0.0040438455 0.03930312 0.022140317
0.041054633 0.0037894382 0.03140637 0.038081955 -0.0069318986 -0.035118625 0.04094983 0.0737653
-0.039771277 -0.052455887 0.02782383 0.009577727 -0.025766809 -0.022346359 0.09146013 0.056764547
-0.013254098 0.02082894 -0.06782805 -0.018318577 0.021454219 -0.019524073 -0.06240964 -0.05252089
0.019710792 0.010985814 0.0071234615 0.019621253 0.054602105 -0.014827401 -0.026556434 0.009559112
-0.0657241 0.0033832414 0.01192711 0.03419094 -0.00047314144 0.0224453 -0.023724928 0.04309651
0.014254002 0.041504424 0.07369468 -0.09102957 0.018898312 0.021517029 -0.010313839 0.015348993
-0.114507005 0.061759237 0.106230535 -0.06368882 -0.04240177 0.041353017 0.027324617 0.0025240628
0.051880132 -0.07625983 0.033080388 0.09615735 -0.056173634 0.015257181 -0.0061591244 0.0016993874
0.04237126 0.047341716 -0.009824511 0.050773595 0.019883985 -0.03480164 -0.010327562 0.031462885
0.0013326538 -0.01563337 -0.023174642 -0.0028635566 0.029920671 0.05244842 -0.028953547 0.0048842737
-0.021201896 0.033265382 0.009748789 0.007210152 0.010919627 0.001941 -0.03968755 0.004559574
0.008741395 0.025094748 -0.037108496 -0.01746593 0.0359547 0.014373955 0.024354907 -0.034850694
-0.014397185 -0.08750997 -0.0028467441 -0.013126547 0.014304684 0.043917313 -0.02148137 0.0063796
0.054775074 0.03894053 0.022190161 0.020476496 0.021021202 -0.037890527 0.01784704 -0.0046066125
-0.017117538 0.034184176 -0.016717957 0.051596608 0.015542189 -0.01469176 -0.008457618 -0.01685166
-0.07912821 -0.032498013 0.086518034 0.046093762 -0.0052933916 0.0054353434 -0.015000982 -0.027717926
-0.0013128064 0.015225713 -0.002622691 -0.007226118 0.035352282 0.0012054326 0.01875194 -0.013520067
00000000: f4f7 32bd fa5b ff38 ffc5 bcbc 2c91 22bd
00000010: ce81 a7bb 90e1 3ebd ed95 d2bc 82d5 ebbc
00000020: b385 12bb cac4 8c3c 100f 32bc 4c4b 90bb
00000030: d8a2 98bc de29 a8bb c705 6238 a5d9 f33c
00000040: 340b 33bd 447b bf3c 6245 8b3d 7444 3e3d
00000050: 9fb6 8a3d 07b7 933b 332f c4bc def0 e8bc
00000060: b149 923c 8e02 dbbb 8108 83bd 2a42 e83d
00000070: 41ba efba c4a5 b2bd 2414 e3bc 35e9 5fbc
00000080: 0ec1 09bd 9eaf 2ebd cfd7 05bc 4446 c63d
00000090: 7e98 b9bc 4fda 933d 4cf2 1c3d e643 2ebd
000000a0: 7e98 c73b 77c0 393b 9af4 3abd cd63 4c3c
000000b0: 188e 5bbc 617b 0bbc 2ac6 fabc 6565 0bbd
000000c0: 9379 b3bc 0f6f 473c 6700 25bd e028 2dbd
000000d0: 6f33 47bd 4302 8ebc e750 db3c ca8c 8c3c
000000e0: 3a3f 5f3d 3c72 b4bb 6666 203d fa4d 5f3d
000000f0: b9e8 153d d878 0e3d 6c4c 233d 6a24 4c3d
00000100: 9449 8dbc 91e8 0e3d 606f 053d 9a11 70bd
00000110: d7e5 2c3d c0a8 04bc 8ad6 8cbc 0293 77bb
00000120: 7a51 c8bc 1df1 abbc ad73 d0bc 246c a0bc
00000130: e69f f33c 38d1 943b 2fc9 0fbd b74b 93bc
00000140: c66a bd3c 9aa2 8bbd 3879 343c 3397 ed3c
00000150: 5454 9a3a 55e4 383d 466c 04bd 328e 8ebc
00000160: 3aae 3bbd ad62 6dbd 0785 0c3d 2aad e8bc
00000170: 1bf1 f93d 1b25 b2bd b49f e3bd d189 a03c
00000180: e01b d03b 864e 79bd 2212 733d 7c68 a638
00000190: 0709 d63a b07d d73b 5d69 303d cabd 19ba
000001a0: a12c 193d 8217 183d e1f7 a2bc fd08 21bb
000001b0: 3d5c 05bc 3225 123d 7f36 ce3d bbc2 63bc
000001c0: 3ce8 413c 9a94 6c3d ef07 a1bc eb23 303d
000001d0: e574 aa3c 3c82 843b 4ffc 203d 9c5f b53c
000001e0: e728 283d 3958 783b f7a3 003d d3fb 1b3d
000001f0: fb24 e3bb 8cd8 0fbd 02bb 273d 4312 973d
00000200: 35e7 22bd fcdb 56bd cdee e33c e6eb 1c3c
00000210: ea14 d3bc b60f b7bc 734f bb3d f181 683d
00000220: b727 59bc 74a1 aa3c 6fe9 8abd d710 96bc
00000230: c2c0 af3c f3f0 9fbc 40a1 7fbd 2520 57bd
00000240: 8778 a13c d8fd 333c ed6b e93b c0bc a03c
00000250: 75a6 5f3d a1ee 72bc e18c d9bc d29d 1c3c
00000260: 5b9a 86bd 5fb9 5d3b ed69 433c cd0b 0c3d
00000270: f80f f8b9 35df b73c c85a c2bc f785 303d
00000280: 9e89 693c 8b00 2a3d 3ded 963d b66d babd
00000290: a2d0 9a3c 7b44 b03c 60fb 28bc 587a 7b3c
000002a0: a682 eabd 41f7 7c3d 658f d93d 496f 82bd
000002b0: 7aad 2dbd c861 293d e0d7 df3c bf6a 253b
000002c0: 4380 543d 1d2e 9cbd 4d7f 073d 25ee c43d
000002d0: 5316 66bd 41f9 793c 7bd2 c9bb fbbd de3a
000002e0: 7c8d 2d3d 63e9 413d fcf6 20bc f9f7 4f3d
000002f0: bde3 a23c 2a8c 0ebd ef34 29bc 3adf 003d
00000300: 71ac ae3a 8e11 80bc bfd8 bdbc 82aa 3bbb
00000310: 321c f53c 28d4 563d fd2f edbc 420c a03b
00000320: 99af adbc 4841 083d 62b9 1f3c 2443 ec3b
00000330: 3ce8 323c 2769 fe3a 6a8f 22bd 7b68 953b
00000340: 1138 0f3c 8093 cd3c 14ff 17bd b614 8fbc
00000350: 3c45 133d bd80 6b3c f183 c73c 9abf 0ebd
00000360: 2ce2 6bbc 6d38 b3bd 7190 3abb bb10 57bc
00000370: 315e 6a3c a4e2 333d b3f9 afbc f70b d13b
00000380: d45b 603d 1b80 1f3d 24c8 b53c 53be a73c
00000390: a834 ac3c 1933 1bbd f533 923c 11f3 96bb
000003a0: 143a 8cbc b504 0c3d 19f4 88bc f756 533d
000003b0: aaa4 7e3c b5b5 70bc d291 0abc 7e0c 8abc
000003c0: f90d a2bd a31c 05bd 5e30 b13d d0cc 3c3d
000003d0: 3074 adbb f71a b23b aec6 75bc b410 e3bc
000003e0: 7912 acba 4575 793c 74e1 2bbb 12c9 ecbb
000003f0: 8ecd 103d 9bff 9d3a ab9d 993c 4583 5dbc

encoder.out_seq.3.conv_1.bias f4 [128]
0.019907288 0.01531796 -0.027053596 -0.044684555 -0.048058465 -0.025608014 -0.04561816 -0.029563058
-0.049276993 -0.021688279 0.044493124 -0.031339254 -0.0505539 -0.019070249 -0.022370895 0.0066564595
-0.023623206 0.0178569 0.052027702 -0.00372642 -0.001219279 0.004797527 -0.023671325 0.031122245
0.033838738 -0.005377341 -0.044876844 -0.043406032 -0.05277758 -0.046506733 -0.057015564 -0.024309967
0.01342611 0.0153365955 0.031816237 -0.058018774 -0.040855628 0.0044972077 -0.013061014 -0.038486943
-0.006021459 -0.03459457 0.018817382 -0.027988493 0.052131522 -0.06385213 0.032105315 -0.009476614
-0.013228717 0.004263301 0.015914822 -0.02845733 -0.023154097 -0.0046179844 0.01734124 0.038012303
0.029690815 -0.020007432 0.038947906 -0.054710902 0.0023317356 0.008936175 -0.0037116264 0.059625827
-0.050718375 0.013014851 -0.061969377 0.008934854 0.03622213 0.014468534 -0.04309001 0.017142642
-0.05427207 -0.038508467 0.028752558 0.03456915 -0.013636856 0.00089907565 -0.02265628 -0.019624293
0.018418763 -0.026717799 0.022971505 0.031231837 -0.016577832 -0.019711152 0.013177745 -0.014372755
0.029790642 -0.04228795 0.020837164 0.0121826455 -0.047368366 0.019510115 0.010093036 0.03285996
0.037729543 -0.03699769 0.010193336 0.025368901 -0.020659123 0.0027505553 -0.0055378117 -0.017204732
-0.034384146 -0.009464964 0.032777373 0.036597632 -0.004025184 0.018246746 0.052135136 0.03528224
-0.0033163347 -0.031336796 0.015127145 0.02575542 0.02472193 -0.02833514 0.029846175 0.021571137
-0.012569897 0.012023176 0.0012730532 -0.012144432 0.05555325 -0.00774057 0.036508247 -0.024250602
00000000: 9c14 a33c 2ef8 7a3c 819f ddbc 2707 37bd
00000010: f4d8 44bd e6c7 d1bc 1cda 3abd 3a2e f2bc
00000020: acd6 49bd 9eab b1bc 6c3e 363d 975d 00bd
00000030: 9b11 4fbd 3639 9cbc 2b43 b7bc 6e1e da3b
00000040: 7485 c1bc a248 923c 001b 553d f436 74bb
00000050: 37d0 9fba 9334 9d3b 5eea c1bc 14f4 fe3c
00000060: 7d9a 0a3d 6834 b0bb c8d0 37bd 86ca 31bd
00000070: 4e2d 58bd d87d 3ebd 2789 69bd b225 c7bc
00000080: 30f9 5b3c 5846 7b3c be51 023d 18a5 6dbd
00000090: 3b58 27bd 505d 933b ddfd 55bc 7ca4 1dbd
000000a0: a94f c5bb 09b3 0dbd e926 9a3c 2048 e5bc
000000b0: dd87 553d e8c4 82bd dd80 033d cd43 1bbc
000000c0: 43bd 58bc 29b3 8b3b cd5f 823c 591f e9bc
000000d0: a9ad bdbc 7652 97bb 370f 8e3c cab2 1b3d
000000e0: 273a f33c a0e6 a3bc d787 1f3d 8a18 60bd
000000f0: 08d0 183b 0969 123c c23e 73bb 363a 743d
00000100: 12be 4fbd 3e3c 553c 9ad3 7dbd 7e63 123c
00000110: a85d 143d 6e0d 6d3c 267f 30bd ba6e 8c3c
00000120: 644c 5ebd 0ebb 1dbd 7c8a eb3c 6298 0d3d
00000130: 1f6d 5fbc f2af 6b3a aa99 b9bc 20c3 a0bc
00000140: f2e2 963c 49df dabc bd2e bc3c e9d9 ff3c
00000150: 3cce 87bc 4879 a1bc 78e7 573c b47b 6bbc
00000160: 810b f43c 2136 2dbd b3b2 aa3c b899 473c
00000170: 5505 42bd add3 9f3c 435d 253c 2a98 063d
00000180: 4b8a 1a3d e48a 17bd f301 273c 71d2 cf3c
00000190: 523d a9bc a942 343b 8876 b5bb f0f0 8cbc
000001a0: 64d6 0cbd f012 1bbc 9141 063d 66e7 153d
000001b0: b1e5 83bb 337a 953c a78b 553d 1c84 103d
000001c0: dd56 59bb 035b 00bd d8d7 773c 08fd d23c
000001d0: a585 ca3c 181f e8bc f77f f43c f4b5 b03c
000001e0: f8f1 4dbc dbfc 443c 94dc a63a 71f9 46bc
000001f0: ce8b 633d 9ca4 fdbb ac89 153d 33a9 c6bc

decoder.in_seq.0.up_conv_1.weight f4 [128, 64, 3, 3]
-0.0023186565 0.037185688 0.009177473 0.026233258 0.053990223 -0.047116175 0.03900025 -0.02825541
-0.043932505 -0.035664402 -0.02887517 0.015766937 0.048497368 -0.050210018 -0.07276808 0.03952134
0.06481849 -0.015603194 0.06979126 -0.03969425 -0.20398293 -0.020547358 -0.029655611 0.0053717284
-0.029416386 0.055576395 0.03327284 -0.008505914 -0.03950793 0.08650349 0.01314542 0.0013719159
0.013126729 -0.027710805 -0.035107207 0.03349892 -0.022235595 -0.031762812 -0.040461585 0.044616293
0.058835972 0.011792664 -0.027259216 -0.04165634 -0.03948107 -0.09799362 0.015598211 0.058644798
-0.044462632 0.045720793 -0.029184096 -0.049207658 -0.07713886 -0.0066157426 -0.06084493 -0.025750412
-0.02704808 -0.08627479 -0.00016881204 0.010550022 0.029786088 0.015256476 -0.026793355 -0.0067379964
0.036357094 0.05541383 0.052001424 0.0066332524 0.015033304 -0.03434979 -0.060058124 0.062938
0.07857127 0.012458117 -0.12054289 -0.048982605 -0.0015783644 -0.0916704 0.018584177 0.032292876
-0.116399564 -0.018166808 -0.00876979 -0.0073165633 -0.07465281 -0.02008028 -0.014743319 0.018393282
-0.030140905 -0.0351555 -0.056678135 -0.022726212 -0.026399681 0.05362741 -0.057863403 -0.023087593
-0.019942775 -0.0050680703 -0.043812692 -0.015547462 -0.043789014 -0.02104098 0.02721892 -0.048920427
-0.047787007 0.013041292 0.01222123 -0.12778501 -0.02435713 -0.020399375 0.007011245 0.01494314
0.013852235 0.0415777 0.016022561 0.007433042 -0.014551402 -0.026597356 -0.0139203165 0.027599992
0.05533914 -0.019194128 0.028284926 -0.03890735 -0.053001158 -0.032372788 -0.019036716 0.022581955
0.03734161 0.07129473 -0.012422646 0.0133258365 0.029365825 0.029479576 -0.004079622 0.022356374
0.019942615 0.0014838519 -0.02148047 0.0054075955 0.051083498 0.014661227 0.029612925 0.08578463
0.0542224 -0.0407451 0.033765644 -0.03125445 -0.016954675 0.11282272 -0.0047264416 0.044692833
-0.07321453 -0.030825641 0.001742691 0.018909244 0.032003425 0.09170242 -0.08363863 -0.023139704
0.027271869 -0.17253196 -0.01194854 -0.05274704 0.009982763 0.011424324 -0.09334985 0.01834844
-0.06454263 -0.151432 0.010770727 0.027887713 0.0029070978 -0.015716335 0.015538138 -0.011082004
-0.025616702 -0.04036525 0.0120532205 0.011684831 0.042537495 0.12856627 -0.0013840295 0.054256372
0.103426 -0.052801706 0.05394624 0.034772836 -0.049115866 -0.041061155 0.041173905 -0.020346938
-0.033671677 0.0334425 -0.045699194 0.059165444 0.072763585 -0.13893771 0.009975937 0.06057831
-0.02196041 -0.017895 -0.019383272 -0.0222457 -0.07639497 -0.06193918 -0.039279576 0.117247134
-0.02658632 -0.034980267 0.13043459 0.054970838 -0.021820009 0.037043575 0.02181035 0.031233547
0.052621838 -0.03254851 0.08417935 -0.002095384 -0.044316117 0.11757918 0.0478196 -0.0033138401
-0.047984354 -0.03383253 -0.040181346 0.037203595 -0.043961823 0.06564841 -0.140406 -0.01332578
-0.023846202 0.00082575326 -0.0038322255 0.06836526 0.051362276 0.05889023 0.026053583 0.0073422217
-0.011875807 -0.03752402 -0.014440858 0.14150909 0.03928146 0.03829997 0.03610118 -0.02409596
0.024219077 -0.003369495 -0.08088752 0.026880732 -0.020773679 -0.01811511 -0.029710429 0.0061154836
00000000: 9af4 17bb 0550 183d 1d5d 163c 21e7 d63c
00000010: da24 5d3d e4fc 40bd babe 1f3d e477 e7bc
00000020: 92f2 33bd d614 12bd 9f8b ecbc aa29 813c
00000030: 2da5 463d 05a9 4dbd 6e07 95bd 21e1 213d
00000040: 8ebf 843d 8aa4 7fbc b8ee 8e3d 7096 22bd
00000050: e7e0 50be ef52 a8bc 53f0 f2bc 5305 b03b
00000060: a2fa f0bc 13a4 633d 1a49 083d 645c 0bbc
00000070: 11d3 21bd be28 b13d e35f 573c dcd1 b33a
00000080: 7e11 573c c501 e3bc 93cc 0fbd 2a36 093d
00000090: 6c27 b6bc b919 02bd 0cbb 25bd 93bf 363d
000000a0: fdfd 703d 0536 413c b84e dfbc d79f 2abd
000000b0: e7b6 21bd e1b0 c8bd a48f 7f3c 8735 703d
000000c0: 731e 36bd ba45 3b3d 7c13 efbc f88d 49bd
000000d0: fbfa 9dbd dfc8 d8bb 8938 79bd 87f2 d2bc
000000e0: ef93 ddbc d6b0 b0bd 2303 31b9 00da 2c3c
000000f0: f401 f43c 4cf6 793c bd7d dbbc 69ca dcbb
00000100: 2deb 143d 9df9 623d 72ff 543d c15b d93b
00000110: 3f4e 763c 5eb2 0cbd 82ff 75bd a3e5 803d
00000120: f9e9 a03d 211d 4c3c 31df f6bd fca1 48bd
00000130: 1fe1 ceba b1bd bbbd d83d 983c 8945 043d
00000140: e562 eebd 8fd2 94bc 2aaf 0fbc c8bf efbb
00000150: 93e3 98bd 667f a4bc f68d 71bc 82ad 963c
00000160: 0fea f6bc 37ff 0fbd 5527 68bd 522c babc
00000170: 2544 d8bc 6aa8 5b3d 2d02 6dbd 3122 bdbc
00000180: 085f a3bc 0e12 a6bb f074 33bd c8ba 7ebc
00000190: 1c5c 33bd 225e acbc 36fa de3c c960 48bd
000001a0: 4fbc 43bd 25ab 553c 8e3b 483c 13da 02be
000001b0: 9b88 c7bc 971c a7bc 96be e53b 12d4 743c
000001c0: 7cf4 623c 614d 2a3d bf41 833c e090 f33b
000001d0: 0169 6ebc b3e2 d9bc 0a12 64bc 6119 e23c
000001e0: 4bab 623d 013d 9dbc cab5 e73c 505d 1fbd
000001f0: be17 59bd 5499 04bd e3f2 9bbc cbfd b83c
00000200: 84f3 183d f902 923d 5b88 4bbc 9c54 5a3c
00000210: 9990 f03c 277f f13c 5aae 85bb b724 b73c
00000220: b25e a33c cf7d c23a d0f7 afbc 3332 b13b
00000230: ee3c 513d a535 703c ce96 f23c daaf af3d
00000240: 4f18 5e3d 55e4 26bd d84d 0a3d ab04 00bd
00000250: 88e4 8abc 990f e73d 44e0 9abb d50f 373d
00000260: 80f1 95bd 0e86 fcbc 026b e43a 8fe7 9a3c
00000270: 0616 033d 7ace bb3d bb4a abbd 7a8f bdbc
00000280: 4169 df3c 38ac 30be cfc3 43bc 480d 58bd
00000290: be8e 233c 162d 3b3c 352e bfbd 784f 963c
000002a0: ed2e 84bd fd10 1bbe b477 303c c674 e43c
000002b0: 0285 3e3b 8bbf 80bc ad93 7e3c 4b91 35bc
000002c0: 1eda d1bc 0856 25bd df7a 453c bc71 3f3c
000002d0: cc3b 2e3d e0a6 033e 5368 b5ba ee3b 5e3d
000002e0: 03d1 d33d 9a46 58bd bcf6 5c3d f66d 0e3d
000002f0: b82d 49bd be2f 28bd f8a5 283d 9fae a6bc
00000300: 50eb 09bd 01fb 083d 142f 3bbd 7757 723d
00000310: 1305 953d b045 0ebe 1d72 233c f620 783d
00000320: 51e6 b3bc 8998 92bc abc9 9ebc 9d3c b6bc
00000330: f774 9cbd f0b3 7dbd 9fe3 20bd 441f f03d
00000340: 8ecb d9bc 7847 0fbd a590 053e 1a29 613d
00000350: e0bf b2bc 01bb 173d 9eab b23c 7fdd ff3c
00000360: ff89 573d 9651 05bd 3966 ac3d b652 09bb
00000370: d184 35bd 5acd f03d 7cde 433d 032d 59bb
00000380: 3e8b 44bd fb93 0abd 3295 24bd cc62 183d
00000390: 5011 34bd ac72 863d 97c6 0fbe 5f54 5abc
000003a0: 1c59 c3bc 5d77 583a 1326 7bbb 1603 8c3d
000003b0: 4061 523d e236 713d 536e d53c 0597 f03b
000003c0: bf92 42bc c9b2 19bd 5999 6cbc c2e7 103e
000003d0: 99e5 203d 6ee0 1c3d d5de 133d e464 c5bc
000003e0: 1667 c63c bfd2 5cbb 5ba8 a5bd fb34 dc3c
000003f0: 902d aabc 2466 94bc 4963 f3bc 6564 c83b

decoder.in_seq.0.up_conv_1.bias f4 [64]
0.019580644 0.0181204 0.05201189 0.0031290934 0.04167875 0.07452361 0.022197863 0.028040653
0.0070406855 0.037732072 0.037433475 0.022223828 0.026080394 0.022494417 0.0308296 0.023664318
-0.027007869 0.012823491 0.024521856 -0.0033135784 0.107618146 -0.011853791 0.01437824 0.02916439
0.05577145 0.083638944 0.042717148 0.05506911 0.017266221 -0.04271524 0.015296286 0.046790212
0.07151744 0.0062722615 0.03425511 0.056272205 0.038618367 -0.02147639 0.0891003 0.16975477
0.057565648 0.000621355 0.029984405 0.040167447 0.033720855 0.004991939 -0.0044199694 -0.029659709
0.04480996 -0.012325593 0.015967488 0.007956955 -0.05843424 0.035424188 -0.009577298 0.045386534
0.03362839 -0.01729891 0.045739394 0.006070015 0.05161467 -0.006115836 -0.011674789 0.05421719
00000000: 9667 a03c 3c71 943c 6b0a 553d 7a11 4d3b
00000010: 56b7 2a3d d69f 983d 4bd8 b53c 83b5 e53c
00000020: 8db5 e63b f28c 1a3d d853 193d bf0e b63c
00000030: 8da6 d53c 3646 b83c 5b8e fc3c acdb c13c
00000040: 9b3f ddbc 9f19 523c 0fe2 c83c 9f28 59bb
00000050: e766 dc3d 6736 42bc b692 6b3c 29ea ee3c
00000060: 9b70 643d e54a ab3d 2df8 2e3d 2690 613d
00000070: e471 8d3c 2df6 2ebd 469d 7a3c 18a7 3f3d
00000080: bc77 923d 8b87 cd3b 164f 0c3d af7d 663d
00000090: 4b2e 1e3d 41ef afbc 387a b63d 32d4 2d3e
000000a0: f5c9 6b3d 6ee2 223a dba1 f53c 9f86 243d
000000b0: e11e 0a3d 6b93 a33b 64d5 90bb ebf8 f2bc
000000c0: a68a 373d 49f1 49bc 40ce 823c e35d 023c
000000d0: be58 6fbd f418 113d 19ea 1cbc 3be7 393d
000000e0: ecbd 093d 72b6 8dbc 3b59 3b3d fae6 c63b
000000f0: e769 533d 5a67 c8bb 9d47 3fbc d812 5e3d

decoder.in_seq.1.up_conv_1.weight f4 [64, 32, 3, 3]
0.013884874 -0.059114985 -0.01269591 0.04574015 0.010128622 -0.14671381 0.0038236368 0.019014768
0.05245904 -0.070388906 0.013454057 -0.0050276103 0.023952613 0.012379143 0.05283782 0.052030474
-0.02783239 0.13308714 -0.015701823 0.055404227 -0.00333338 0.09865806 0.05091227 -0.09791621
0.028687753 0.058645803 0.01953784 0.0066613457 0.050966643 -0.02741853 -0.0023858172 0.08476034
-0.029976005 0.11593499 0.0064673997 -0.0399151 -0.039034534 -0.011184948 -0.030156646 -0.017528825
-0.042393897 0.039756596 0.14070389 0.03310299 -0.048872314 -0.029707596 -0.014332701 -0.099629566
-0.028385162 0.060036182 0.05180876 -0.05275511 -0.01110435 0.068030275 -0.0070231757 -0.024504205
-0.03270885 0.004485343 0.013150057 -0.07673377 0.25343394 0.05780833 0.04799204 0.009356167
-0.016962321 0.00012626208 -0.1036415 -0.14006864 -0.030175079 0.18839498 -0.11166613 0.051181257
0.03581167 -0.032195985 -0.03799214 -0.028005177 -0.011709553 0.017665936 0.004619887 0.0022224823
0.023797713 -0.065430984 -0.07018284 -0.0118268635 0.03375244 -0.16756077 -0.047485545 -0.20000617
0.034846753 0.060101766 0.057500392 0.06768918 0.009352604 0.060075853 0.04546038 -0.03786334
-0.13635302 -0.124466315 -0.10609895 -0.023072753 0.048830934 -0.026233263 -0.06963699 -0.07061687
-0.015089152 0.0284046 -0.092864975 -0.03219321 0.0979504 -0.09022175 -0.15459426 -0.1602489
-0.054127347 -0.06899372 -0.048299752 -0.021180442 -0.074148946 -0.060709465 -0.054749686 -0.09220487
-0.037445314 0.030221434 -0.042075433 0.016683524 0.11379533 0.11768133 -0.0053169085 -0.031859465
0.11568243 -0.10298403 -0.014823933 -0.051602334 -0.016874794 -0.06832145 -0.041347705 0.0024473257
-0.10417671 -0.037073053 -0.067286596 0.015182407 0.028968578 0.06852319 0.13696265 0.014780934
0.014389601 0.042054676 0.1290126 0.07058926 -0.015402036 0.058374465 -0.03808179 0.0018467346
-0.088131174 0.05976298 -0.003296446 -0.0043016532 -0.03437247 -0.020086572 0.004842544 0.08568718
-0.016777257 0.06319022 0.20023234 0.028228136 -0.061407503 -0.16398686 0.0733895 -0.011883133
-0.030203765 -0.20331234 0.078655325 -0.046964698 -0.04806526 0.09250679 0.0788981 -0.016289331
0.18800963 0.011052014 0.19594564 0.055658326 0.16297382 -0.03899109 -0.028677851 -0.00626372
-0.015804593 -0.013948013 -0.13995406 -0.06327227 -0.019141573 -0.027140826 -0.0566246 -0.059705045
0.04058542 -0.011495328 -0.024980072 0.041093167 -0.051802296 -0.016093878 0.026307197 -0.08620946
-0.09211115 -0.04602228 -0.0452665 -0.053570934 -0.10280564 0.09497175 -0.008878587 -0.07488902
-0.02623991 -0.023349846 0.0088588875 0.020060895 0.034263637 0.055108298 0.06978685 0.023341166
0.07047507 0.0071772668 -0.004862135 0.021730276 0.027272379 0.1413618 0.020783758 0.04544564
0.102597 0.037817106 0.009691314 -0.016708212 0.0027511406 0.062290303 0.030919755 0.019581461
-0.076590665 -0.070038006 -0.041814055 -0.033497766 -0.024359945 0.03709239 0.07965288 -0.0028114791
0.03537844 0.043755174 -0.038034324 0.091467455 -0.02113138 -0.02783555 0.011608388 0.07893273
-0.07253236 0.0007509609 0.01143098 0.00999627 0.08199066 0.046182025 0.016182458 0.0748719
00000000: 627d 633c 8e22 72bd 8202 50bc 065a 3b3d
00000010: 85f2 253c 253c 16be fb95 7a3b dcc4 9b3c
00000020: 4adf 563d 0f28 90bd 686e 5c3c a7be a4bb
00000030: 4538 c43c e4d1 4a3c 786c 583d e81d 553d
00000040: c100 e4bc ff47 083e 1ca1 80bc 8bef 623d
00000050: d674 5abb 3d0d ca3d 6289 503d 4b88 c8bd
00000060: 9402 eb3c 9536 703d d20d a03c 6b47 da3b
00000070: 66c2 503d d39c e0bc 5f5b 1cbb d496 ad3d
00000080: 3d90 f5bc 536f ed3d 7bec d33b 047e 23bd
00000090: ade2 1fbd 1241 37bc 120b f7bc 9c98 8fbc
000000a0: 39a5 2dbd d0d7 223d ae14 103e 0097 073d
000000b0: 562e 48bd 585d f3bc b5d3 6abc 960a ccbd
000000c0: 0088 e8bc 80e8 753d 6c35 543d be15 58bd
000000d0: 05ef 35bc 7553 8b3d ab22 e6bb 0bbd c8bc
000000e0: b7f9 05bd c9f9 923b 5673 573c 9826 9dbd
000000f0: 18c2 813e 6dc8 6c3d 4d93 443d 9c4a 193c
00000100: 91f4 8abc 3865 0439 ff41 d4bd 276e 0fbe
00000110: ba31 f7bc 9dea 403e 36b1 e4bd 70a3 513d
00000120: 42af 123d f0df 03bd a59d 1bbd 1d6b e5bc
00000130: 6dd9 3fbc 27b8 903c 6c62 973b 11a7 113b
00000140: 6cf3 c23c ae00 86bd 05bc 8fbd 76c5 41bc
00000150: 0040 0a3d 0d95 2bbe 3480 42bd 6bce 4cbe
00000160: 78bb 0e3d 452d 763d 8885 6b3d a0a0 8a3d
00000170: aa3b 193c 1912 763d aa34 3a3d 9716 1bbd
00000180: 20a0 0bbe 32e8 febd 684a d9bd 1203 bdbc
00000190: f202 483d 24e7 d6bc d79d 8ebd 949f 90bd
000001a0: 7e38 77bc c4b0 e83c fe2f bebd 07dd 03bd
000001b0: 389a c83d 2ec6 b8bd f54d 1ebe 4a18 24be
000001c0: a3b4 5dbd 944c 8dbd f6d5 45bd 9b82 adbc
000001d0: 67db 97bd 7daa 78bd 3541 60bd e8d5 bcbd
000001e0: 4260 19bd f192 f73c 4a57 2cbd e3ab 883c
000001f0: 870d e93d e902 f13d 7639 aebb 127f 02bd
00000200: e9ea ec3d 4be9 d2bd 15e0 72bc f85c 53bd
00000210: 023d 8abc 1eec 8bbd 365c 29bd 5063 203b
00000220: 995a d5bd ead9 17bd 8ecd 89bd a1bf 783c
00000230: 834f ed3c e355 8c3d f03f 0c3e bb2b 723c
00000240: 5cc2 6b3c 8641 2c3d e11b 043e 1a91 903d
00000250: d258 7cbc 101a 6f3d a7fb 1bbd 210e f23a
00000260: 1e7e b4bd 07ca 743d 3009 58bb e2f4 8cbb
00000270: 26ca 0cbd 988c a4bc 34ae 9e3b c37c af3d
00000280: 7570 89bc e069 813d b509 4d3e b13e e73c
00000290: 6f86 7bbd 2cec 27be 3c4d 963d 79b1 42bc
000002a0: e36d f7bc 1c31 50be 0b16 a13d 0e5e 40bd
000002b0: 14e0 44bd 3374 bd3d 5495 a13d 3471 85bc
000002c0: 9985 403e 8213 353c f9a5 483e fcf9 633d
000002d0: 9ce2 263e 1fb5 1fbd d0ed eabc e43f cdbb
000002e0: a278 81bc 3586 64bc 1e50 0fbe e494 81bd
000002f0: cace 9cbc 7056 debc 32ef 67bd 478d 74bd
00000300: e63c 263d e656 3cbc 02a3 ccbc 4f51 283d
00000310: a52e 54bd 4fd7 83bc 3182 d73c 968e b0bd
00000320: c5a4 bcbd dc81 3cbd 5e69 39bd 326d 5bbd
00000330: c38b d2bd 8d80 c23d 7e77 11bc 6a5f 99bd
00000340: 14f5 d6bc 2d48 bfbc de24 113c bf56 a43c
00000350: 0758 0c3d 3db9 613d 68ec 8e3d f935 bf3c
00000360: 3c55 903d 472f eb3b 8b52 9fbb b103 b23c
00000370: 536a df3c 26c1 103e b342 aa3c 3525 3a3d
00000380: 601e d23d 1ce6 1a3d 51c8 1e3c a9df 88bc
00000390: 7b4c 343b 1e24 7f3d 6d4b fd3c 4d69 a03c
000003a0: 91db 9cbd 1670 8fbd 3745 2bbd f434 09bd
000003b0: 828e c7bc 31ee 173d 0d21 a33d cb40 38bb
000003c0: fce8 103d a038 333d e1c9 1bbd 4a53 bb3d
000003d0: b71b adbc 6107 e4bc 1c31 3e3c 7ca7 a13d
000003e0: d98b 94bd 22dc 443a 0149 3b3c 65c7 233c
000003f0: b8ea a73d 5d29 3d3d 1391 843c 7056 993d

decoder.in_seq.1.up_conv_1.bias f4 [32]
-0.0071765925 0.0147756785 0.058158502 0.05580369 0.0377038 0.01928126 0.024244683 0.06460274
0.028918872 0.028128635 0.04009374 0.06326749 0.026397165 0.05800602 -0.05229302 0.005605343
-0.016777901 0.029678814 -0.04862453 0.042381115 0.060557228 -0.01452867 0.028924856 -0.037713513
0.013741353 0.008686066 -0.043286026 -0.023223875 0.003204592 0.027890306 0.04418287 0.005920865
00000000: 9f29 ebbb b015 723c 9c37 6e3d 6992 643d
00000010: 4d6f 1a3d bcf3 9d3c c99c c63c 714e 843d
00000020: 45e7 ec3c 066e e63c 5539 243d 6392 813d
00000030: de3e d83c b897 6d3d 3531 56bd 06ad b73b
00000040: cf71 89bc fc20 f33c 842a 47bd d297 2d3d
00000050: db0a 783d a909 6ebc d2f3 ec3c 7c79 1abd
00000060: 6923 613c 0050 0e3c b04c 31bd ff3f bebc
00000070: 2204 523b 367a e43c 19f9 343d d103 c23b
